pure_weights_colon/colon_model.pt (torch, 528767 bytes, 119 tensors)

performer.token_emb.weight f4 [5, 16]
-2.3693633 1.1296042 0.02729415 -1.9798744 -0.3486294 1.5205396 -0.030433685 -0.722997
1.6128181 -1.8594358 -0.68097943 0.000181447 -0.5128572 -0.8999571 -0.9914206 0.9804999
-0.12744416 2.4237564 -0.46609178 -1.3367532 0.33061236 -0.5905305 -0.5593724 -0.20526722
1.257742 -0.54187065 -1.0723709 -1.7083663 -0.026106171 -1.1430839 -0.26442602 0.096724495
0.9384429 0.48886487 0.27729374 0.62691337 -0.009191529 -0.20787896 -1.535039 -0.018867627
-0.49474683 1.3223705 0.40881467 -1.1542727 0.9017786 -0.8322596 -0.23498282 -1.7836379
-0.29957968 -0.541118 -1.5608326 -0.43716398 0.5161498 1.3368455 0.44108418 -0.6260493
1.1344538 -0.66507787 -0.23782645 0.02288136 0.15441497 0.8289114 -1.8195095 1.5759254
-1.1203004 1.100692 -0.6313271 2.0982237 -0.5351137 -0.5601159 -1.0456511 -0.85620314
-0.07769162 -0.12608965 -0.4091325 -0.48903972 -0.65579265 -1.373744 -0.8066213 0.9783208
00000000: a6a3 17c0 df96 903f fb97 df3c 866c fdbf
00000010: 8d7f b2be 0ba1 c23f 1050 f9bc 5516 39bf
00000020: d370 ce3f fe01 eebf ab54 2ebf cf42 3e39
00000030: 9c4a 03bf 9763 66bf becd 7dbf 0b02 7b3f
00000040: b980 02be d31e 1b40 95a3 eebe bb1a abbf
00000050: 0646 a93e 022d 17bf 0833 0fbf 9231 52be
00000060: b1fd a03f 09b8 0abf 7343 89bf bfab dabf
00000070: 9cdc d5bc 9350 92bf d962 87be 7e17 c63d
00000080: cb3d 703f 7f4c fa3e 72f9 8d3e 657d 203f
00000090: 1198 16bc 39de 54be 287c c4bf 4890 9abc
000000a0: 754f fdbe 7043 a93f 2850 d13e 35bf 93bf
000000b0: f6da 663f f70e 55bf 569f 70be 3f4e e4bf
000000c0: 8262 99be b686 0abf 5dc9 c7bf f5d3 dfbe
000000d0: 6522 043f c11d ab3f c9d5 e13e c444 20bf
000000e0: c835 913f 8b42 2abf c788 73be b171 bb3c
000000f0: f51e 1e3e 8a33 543f b0e5 e8bf ecb7 c93f
00000100: 0166 8fbf 7ae3 8c3f a79e 21bf 4c49 0640
00000110: 36fd 08bf c163 0fbf e5d7 85bf 2130 5bbf
00000120: c91c 9fbd a51d 01be d179 d1be 6a63 fabe
00000130: 07e2 27bf d8d6 afbf bc7e 4ebf 3b73 7a3f

performer.pos_emb.emb f4 [300, 16]
0.0 0.0 0.0 0.0 0.0 0.0 0.0 0.0
1.0 1.0 1.0 1.0 1.0 1.0 1.0 1.0
0.84147096 0.3109836 0.09983342 0.031617507 0.009999833 0.0031622725 0.0009999999 0.0003162278
0.54030234 0.9504153 0.9950042 0.99950004 0.99995 0.999995 0.9999995 0.99999994
0.9092974 0.5911271 0.19866933 0.0632034 0.019998666 0.0063245133 0.0019999987 0.0006324555
-0.41614684 0.8065784 0.9800666 0.9980007 0.9998 0.99998003 0.99999803 0.9999998
0.14112 0.8126489 0.29552022 0.09472609 0.0299955 0.009486691 0.0029999956 0.00094868324
-0.9899925 0.58275366 0.9553365 0.99550337 0.99955004 0.999955 0.9999955 0.9999996
-0.7568025 0.95358074 0.38941836 0.12615408 0.039989334 0.012648774 0.0039999895 0.0012649108
-0.6536436 0.30113748 0.921061 0.99201065 0.9992001 0.99992 0.999992 0.9999992
-0.9589243 0.99994653 0.47942555 0.1574559 0.049979165 0.01581073 0.0049999794 0.0015811382
0.2836622 -0.010342338 0.87758255 0.987526 0.99875027 0.999875 0.9999875 0.99999875
-0.2794155 0.9471482 0.5646425 0.18860029 0.059964005 0.01897253 0.005999964 0.0018973656
0.96017027 -0.3207964 0.8253356 0.98205394 0.99820054 0.99982 0.999982 0.9999982
0.6569866 0.8004216 0.64421767 0.21955611 0.06994285 0.022134136 0.006999943 0.0022135926
0.75390226 -0.5994375 0.7648422 0.9755999 0.997551 0.999755 0.9999755 0.99999756
0.98935825 0.5743178 0.7173561 0.25029236 0.07991469 0.025295524 0.007999915 0.0025298195
-0.14550003 -0.8186324 0.6967067 0.9681703 0.9968017 0.99968004 0.999968 0.9999968
0.4121185 0.29125923 0.7833269 0.28077835 0.089878544 0.028456658 0.0089998795 0.0028460461
-0.91113025 -0.9566442 0.6216099 0.95977265 0.9959527 0.99959505 0.9999595 0.99999595
-0.5440211 -0.02068357 0.84147096 0.31098363 0.099833414 0.031617507 0.009999834 0.0031622725
-0.8390715 -0.9997861 0.54030234 0.95041525 0.9950042 0.99950004 0.99995 0.999995
-0.9999902 -0.33057496 0.8912074 0.3408779 0.1097783 0.03477804 0.010999779 0.0034784987
0.004425698 -0.94377977 0.45359612 0.9401076 0.9939561 0.9993951 0.9999395 0.999994
-0.53657293 -0.6076834 0.9320391 0.37043133 0.119712204 0.037938226 0.011999712 0.0037947244
0.84385395 -0.7941793 0.3623577 0.9288599 0.99280864 0.9992801 0.999928 0.9999928
0.42016703 -0.82452846 0.9635582 0.39961436 0.12963414 0.041098036 0.012999634 0.0041109496
0.9074468 -0.5658205 0.26749876 0.9166834 0.9915619 0.9991551 0.9999155 0.99999154
0.9906074 -0.9596054 0.98544973 0.4283978 0.13954312 0.04425743 0.013999543 0.0044271746
0.13673721 -0.28134948 0.16996716 0.90359026 0.990216 0.99902016 0.999902 0.9999902
0.65028787 -0.9995187 0.997495 0.45675293 0.14943813 0.04741638 0.014999438 0.004743399
-0.7596879 0.031022351 0.0707372 0.8895936 0.9887711 0.9988752 0.9998875 0.99998873
00000000: 0000 0000 0000 0000 0000 0000 0000 0000
00000010: 0000 0000 0000 0000 0000 0000 0000 0000
00000020: 0000 803f 0000 803f 0000 803f 0000 803f
00000030: 0000 803f 0000 803f 0000 803f 0000 803f
00000040: a46a 573f 3e39 9f3e 7775 cc3d 5c81 013d
00000050: 57d6 233c 213e 4f3b 6e12 833a 60cb a539
00000060: 4151 0a3f 6b4e 733f 98b8 7e3f 3cdf 7f3f
00000070: b9fc 7f3f acff 7f3f f8ff 7f3f ffff 7f3f
00000080: b7c7 683f 1b54 173f f96f 4b3e c970 813d
00000090: 3ed4 a33c dd3d cf3b 6912 033b 5fcb 253a
000000a0: 3311 d5be ec7b 4e3f a5e5 7a3f f97c 7f3f
000000b0: e5f2 7f3f b1fe 7f3f dfff 7f3f fdff 7f3f
000000c0: c381 103e c209 503f 6d4e 973e c1ff c13d
000000d0: 1fb9 f53c 116e 1b3c 939b 443b 0eb1 783a
000000e0: 2670 7dbf 582f 153f ef90 743f 4fd9 7e3f
000000f0: 83e2 7f3f 0dfd 7f3f b5ff 7f3f f9ff 7f3f
00000100: cfbd 41bf de1d 743f d861 c73e 892e 013e
00000110: dbcb 233d ce3c 4f3c 5812 833b 5dcb a53a
00000120: 3055 27bf b12e 9a3e a7ca 6b3f 69f4 7d3f
00000130: 94cb 7f3f c2fa 7f3f 7aff 7f3f f3ff 7f3f
00000140: 107c 75bf 7ffc 7f3f 4477 f53e 1f3c 213e
00000150: f4b6 4c3d 8185 813c ded6 a33b 323e cf3a
00000160: 2c3c 913e e972 29bc 40a9 603f 81ce 7c3f
00000170: 19ae 7f3f cff7 7f3f 2eff 7f3f ebff 7f3f
00000180: 8c0f 8fbe 4e78 723f 698c 103f 6f20 413e
00000190: d19c 753d 476c 9b3c 599b c43b 06b1 f83a
000001a0: b8cd 753f 6d3f a4be 3249 533f e367 7b3f
000001b0: 128a 7f3f 34f4 7f3f d2fe 7f3f e2ff 7f3f
000001c0: 4630 283f 6ee8 4c3f 73eb 243f 51d3 603e
000001d0: 323e 8f3d a652 b53c c75f e53b ec11 113b
000001e0: bdff 403f bc74 19bf b3cc 433f eac0 793f
000001f0: 815f 7f3f f2ef 7f3f 65fe 7f3f d7ff 7f3f
00000200: 9546 7d3f 7e06 133f a6a4 373f 5226 803e
00000210: 50aa a33d 8f38 cf3c 1312 033c 54cb 253b
00000220: f6fd 14be e591 51bf 5f5b 323f 02da 773f
00000230: 652e 7f3f 08eb 7f3f e7fd 7f3f caff 7f3f
00000240: 3201 d33e ee1f 953e 1d88 483f 2ec2 8f3e
00000250: 3e12 b83d f01d e93c 3b74 133c bb84 3a3b
00000260: d53f 69bf a2e6 74bf d421 1f3f a9b3 753f
00000270: c2f6 7e3f 76e5 7f3f 59fd 7f3f bcff 7f3f
00000280: f844 0bbf 9770 a9bc a46a 573f 3f39 9f3e
00000290: 7675 cc3d 5c81 013d 58d6 233c 213e 4f3b
000002a0: 64cd 56bf fbf1 7fbf 4151 0a3f 6a4e 733f
000002b0: 98b8 7e3f 3cdf 7f3f b9fc 7f3f acff 7f3f
000002c0: 5cff 7fbf 1f41 a9be 2b26 643f 8c87 ae3e
000002d0: 72d3 e03d 6b73 0e3d 6b38 343c 86f7 633b
000002e0: 7205 913b 8d9b 71bf c03d e83e e4aa 703f
000002f0: e873 7e3f 5bd8 7f3f 09fc 7f3f 9bff 7f3f
00000300: d85c 09bf 2491 1bbf 1d9a 6e3f 2da9 bd3e
00000310: ac2b f53d 1d65 1b3d 719a 443c e9b0 783b
00000320: d006 583f 564f 4bbf f386 b93e c3c9 6d3f
00000330: b528 7e3f d2d0 7f3f 48fb 7f3f 87ff 7f3f
00000340: 2220 d73e 4c14 53bf c0ab 763f 419a cc3e
00000350: d0be 043e 6a56 283d 6bfc 543c 25b5 863b
00000360: 6f4e 683f 9dd9 10bf 99f5 883e c3ab 6a3f
00000370: 00d7 7d3f a1c8 7f3f 76fa 7f3f 72ff 7f3f
00000380: 7298 7d3f b3a8 75bf 6f46 7c3f f556 db3e
00000390: 64e4 0e3e 4747 353d 575e 653c d511 913b
000003a0: d704 0c3e 0a0d 90be df0b 2e3e b151 673f
000003b0: cc7e 7d3f c9bf 7f3f 94f9 7f3f 5cff 7f3f
000003c0: 4479 263f 75e0 7fbf d55b 7f3f 85db e93e
000003d0: 4f06 193e ae37 423d 34c0 753c 846e 9b3b
000003e0: e87a 42bf 9622 fe3c aade 903d 68bc 633f
000003f0: 1a20 7d3f 49b6 7f3f a1f8 7f3f 43ff 7f3f

performer.layer_pos_emb.emb f4 [300, 64]
0.0 0.0 0.0 0.0 0.0 0.0 0.0 0.0
0.0 0.0 0.0 0.0 0.0 0.0 0.0 0.0
0.0 0.0 0.0 0.0 0.0 0.0 0.0 0.0
0.0 0.0 0.0 0.0 0.0 0.0 0.0 0.0
1.0 1.0 1.0 1.0 1.0 1.0 1.0 1.0
1.0 1.0 1.0 1.0 1.0 1.0 1.0 1.0
1.0 1.0 1.0 1.0 1.0 1.0 1.0 1.0
1.0 1.0 1.0 1.0 1.0 1.0 1.0 1.0
0.84147096 0.68156135 0.53316844 0.40930894 0.3109836 0.23492107 0.17689219 0.13295726
0.09983342 0.07491915 0.056204494 0.04215715 0.031617507 0.023711514 0.017781857 0.01333482
0.009999833 0.007498872 0.0056233834 0.0042169522 0.0031622725 0.0023713715 0.0017782785 0.0013335211
0.0009999999 0.0007498941 0.00056234124 0.0004216965 0.0003162278 0.00023713738 0.00017782794 0.00013335215
0.54030234 0.731761 0.8460091 0.91239583 0.9504153 0.9720144 0.9842302 0.99112177
0.9950042 0.9971896 0.9984193 0.999111 0.99950004 0.99971884 0.99984187 0.99991107
0.99995 0.99997187 0.9999842 0.9999911 0.999995 0.9999972 0.99999845 0.9999991
0.9999995 0.9999997 0.9999998 0.99999994 0.99999994 1.0 1.0 1.0
0.9092974 0.99748 0.9021307 0.74690354 0.5911271 0.45669335 0.34820527 0.26355368
0.19866933 0.1494172 0.11223131 0.08423935 0.0632034 0.047409695 0.03555809 0.026667269
0.019998666 0.014997322 0.011246589 0.00843383 0.0063245133 0.00474273 0.0035565514 0.0026670396
0.0019999987 0.0014997878 0.0011246824 0.00084339286 0.0006324555 0.00047427474 0.00035565588 0.0002667043
-0.41614684 0.070948265 0.43146282 0.66493237 0.8065784 0.8896242 0.93741834 0.96464473
0.9800666 0.98877424 0.9936821 0.99644554 0.9980007 0.9988755 0.9993676 0.99964434
0.9998 0.9998875 0.99993676 0.9999644 0.99998003 0.99998873 0.9999937 0.9999964
0.99999803 0.99999887 0.99999934 0.99999964 0.9999998 0.9999999 0.99999994 1.0
0.14112 0.7782725 0.9932532 0.95363444 0.8126489 0.652904 0.5085361 0.3894703
0.29552022 0.22307542 0.1679033 0.12617177 0.09472609 0.07108121 0.053323083 0.039994977
0.0299955 0.022494929 0.016869439 0.012650557 0.009486691 0.0071140616 0.005334813 0.0040005534
0.0029999956 0.0022496807 0.0016870231 0.0012650891 0.00094868324 0.0007114121 0.0005334838 0.00040005645
-0.9899925 -0.6279267 -0.11596616 0.3009673 0.58275366 0.7574407 0.86104065 0.92103904
0.9553365 0.9748012 0.9858035 0.9920084 0.99550337 0.9974705 0.9985773 0.99919987
0.99955004 0.999747 0.9998577 0.99991995 0.999955 0.9999747 0.99998575 0.999992
0.9999955 0.9999975 0.99999857 0.9999992 0.9999996 0.99999976 0.9999999 0.99999994
00000000: 0000 0000 0000 0000 0000 0000 0000 0000
00000010: 0000 0000 0000 0000 0000 0000 0000 0000
00000020: 0000 0000 0000 0000 0000 0000 0000 0000
00000030: 0000 0000 0000 0000 0000 0000 0000 0000
00000040: 0000 0000 0000 0000 0000 0000 0000 0000
00000050: 0000 0000 0000 0000 0000 0000 0000 0000
00000060: 0000 0000 0000 0000 0000 0000 0000 0000
00000070: 0000 0000 0000 0000 0000 0000 0000 0000
00000080: 0000 803f 0000 803f 0000 803f 0000 803f
00000090: 0000 803f 0000 803f 0000 803f 0000 803f
000000a0: 0000 803f 0000 803f 0000 803f 0000 803f
000000b0: 0000 803f 0000 803f 0000 803f 0000 803f
000000c0: 0000 803f 0000 803f 0000 803f 0000 803f
000000d0: 0000 803f 0000 803f 0000 803f 0000 803f
000000e0: 0000 803f 0000 803f 0000 803f 0000 803f
000000f0: 0000 803f 0000 803f 0000 803f 0000 803f
00000100: a46a 573f ce7a 2e3f ba7d 083f f190 d13e
00000110: 3e39 9f3e 268f 703e 3a23 353e f325 083e
00000120: 7775 cc3d 366f 993d af36 663d faac 2c3d
00000130: 5c81 013d a63e c23c 42ab 913c 4a7a 5a3c
00000140: 57d6 233c 19b9 f53b 5c44 b83b 5c2e 8a3b
00000150: 213e 4f3b 0369 1b3b 2015 e93a 8bc9 ae3a
00000160: 6e12 833a 8b94 443a 156a 133a 2517 dd39
00000170: 60cb a539 15a8 7839 5377 3a39 72d4 0b39
00000180: 4151 0a3f b054 3b3f 0d94 583f c692 693f
00000190: 6b4e 733f f0d5 783f 83f6 7b3f 28ba 7d3f
000001a0: 98b8 7e3f d147 7f3f 6898 7f3f bdc5 7f3f
000001b0: 3cdf 7f3f 93ed 7f3f a3f5 7f3f 2cfa 7f3f
000001c0: b9fc 7f3f 28fe 7f3f f7fe 7f3f 6bff 7f3f
000001d0: acff 7f3f d1ff 7f3f e6ff 7f3f f1ff 7f3f
000001e0: f8ff 7f3f fbff 7f3f fdff 7f3f ffff 7f3f
000001f0: ffff 7f3f 0000 803f 0000 803f 0000 803f
00000200: b7c7 683f d95a 7f3f 0af2 663f 1235 3f3f
00000210: 1b54 173f b6d3 e93e f647 b23e 82f0 863e
00000220: f96f 4b3e d300 193e 87d9 e53d ae85 ac3d
00000230: c970 813d ab30 423d 5ca5 113d 5175 da3c
00000240: 3ed4 a33c 54b7 753c 9d43 383c 0c2e 0a3c
00000250: dd3d cf3b e768 9b3b 0815 693b 80c9 2e3b
00000260: 6912 033b 8794 c43a 146a 933a 2317 5d3a
00000270: 5fcb 253a 14a8 f839 5377 ba39 72d4 8b39
00000280: 3311 d5be 534d 913d b2e8 dc3e 0239 2a3f
00000290: ec7b 4e3f 69be 633f a6fa 6f3f f5f2 763f
000002a0: a5e5 7a3f 4f20 7d3f f361 7e3f 0e17 7f3f
000002b0: f97c 7f3f 4eb6 7f3f 8ed6 7f3f b1e8 7f3f
000002c0: e5f2 7f3f a1f8 7f3f dbfb 7f3f abfd 7f3f
000002d0: b1fe 7f3f 43ff 7f3f 96ff 7f3f c4ff 7f3f
000002e0: dfff 7f3f edff 7f3f f5ff 7f3f faff 7f3f
000002f0: fdff 7f3f feff 7f3f ffff 7f3f 0000 803f
00000300: c381 103e de3c 473f d745 7e3f 6321 743f
00000310: c209 503f b724 273f 6c2f 023f a768 c73e
00000320: 6d4e 973e e26d 643e d8ee 2b3e 2c33 013e
00000330: c1ff c13d 0793 913d 4e69 5a3d c6d1 233d
00000340: 1fb9 f53c 4947 b83c c731 8a3c 4844 4f3c
00000350: 116e 1b3c 131d e93b a8cf ae3b 1317 833b
00000360: 939b 443b 616f 133b 1a1f dd3a 59d1 a53a
00000370: 0eb1 783a 0f7e 3a3a 7ed9 0b3a abbe d139
00000380: 2670 7dbf cebf 20bf ab7f edbd 6318 9a3e
00000390: 582f 153f a2e7 413f 296d 5c3f 37c9 6b3f
000003a0: ef90 743f 928c 793f 9e5d 7c3f 43f4 7d3f
000003b0: 4fd9 7e3f 3a5a 7f3f c3a2 7f3f 90cb 7f3f
000003c0: 83e2 7f3f 6bef 7f3f adf6 7f3f c1fa 7f3f
000003d0: 0dfd 7f3f 58fe 7f3f 11ff 7f3f 7aff 7f3f
000003e0: b5ff 7f3f d6ff 7f3f e8ff 7f3f f3ff 7f3f
000003f0: f9ff 7f3f fcff 7f3f feff 7f3f ffff 7f3f

performer.performer.net.layers.0.0.norm.weight f4 [16]
1.1209699 1.1564527 1.0807245 1.0706 1.0641577 1.135476 1.1139724 1.061227
1.1425295 1.1747059 1.1259178 1.0441056 1.0819819 1.0988704 1.2316825 1.1381615
00000000: f17b 8f3f a406 943f 2e55 8a3f 6c09 893f
00000010: 5236 883f 4757 913f a696 8e3f 49d6 873f
00000020: 683e 923f c35c 963f 131e 903f 41a5 853f
00000030: 627e 8a3f c9a7 8c3f c6a7 9d3f 47af 913f

performer.performer.net.layers.0.0.norm.bias f4 [16]
0.0023688576 0.0018950813 -0.03039961 0.0166264 0.04746192 0.0508644 -0.07350524 -0.021901147
0.052346487 -0.011846939 -0.00032344623 -0.023428157 0.02348155 0.02510847 0.0006351625 0.011019936
00000000: d63e 1b3b 6064 f83a 9a08 f9bc 1734 883c
00000010: 6e67 423d 3057 503d ea89 96bd 096a b3bc
00000020: 4569 563d aa19 42bc 3894 a9b9 68ec bfbc
00000030: 615c c03c 47b0 cd3c 0981 263a f68c 343c

performer.performer.net.layers.0.0.fn.fn.fast_attention.projection_matrix f4 [64, 64]
-1.3716584 -0.21300454 1.9168843 1.0260139 1.0642695 1.8354619 0.2927054 0.2708991
0.03942403 0.08440699 -0.30135152 -0.28554606 -0.17625709 -0.56692225 -0.10238832 -0.34516826
-2.0349877 -0.31794658 1.2341646 0.22544967 0.78576654 0.038205132 1.301046 0.049134083
0.5440945 -0.30437312 -1.1196777 -0.12297301 -1.6044601 0.094016895 1.0454766 -1.9472352
-1.0243638 0.4527567 -1.4571179 0.15265498 -0.353106 -0.40958425 0.6494454 -0.28101644
0.66110986 -0.39274257 -0.18669645 -1.1080546 -0.32536468 0.757091 -0.6015645 -0.91386056
1.7627105 -0.69584966 0.97251123 1.1084561 0.9326505 1.0516001 0.7021815 0.55058026
-1.3649464 0.6239838 -1.3322786 1.4435923 -0.42785805 -0.2845737 -0.75890976 -0.6482539
-0.19726029 -0.73398334 -1.9615563 -0.38294053 0.78193563 -0.5016215 0.31264797 -0.49956483
-0.8898287 -0.30437806 -0.80260235 0.26346883 1.3742801 0.8627378 -0.13142505 -0.40865475
-0.44644725 -1.1130319 -0.6711196 -0.8526289 1.3225787 0.27044722 -0.77108014 0.42217812
0.36194268 0.58108264 -0.8132488 -0.23668076 -1.5649142 1.0142169 -1.5391546 0.32531527
-0.5787938 0.54049784 -0.23366474 0.97861785 1.4627823 -0.011277751 -1.2306465 -1.0483637
0.27657306 -1.0253632 0.5344329 0.25161883 -0.23053227 -1.7682723 2.097002 0.034605235
0.78272086 -1.9541519 -1.5572771 0.4780962 -0.16068123 1.0646688 2.0110273 -0.25249666
1.4288424 1.218991 0.16416521 1.2947224 -0.10436876 0.13349609 -0.41190642 0.06448854
0.3073389 0.40707904 -0.17657071 -0.4569157 0.3074746 1.5661229 -0.6562054 0.67805177
0.27505732 0.20393343 -1.3096703 -0.57607305 0.44505668 -1.0125757 0.21998629 -0.7045795
1.2614233 1.2676684 -1.6047873 -0.62879205 -0.20074965 -2.3173995 2.1952999 0.7535991
-0.4680683 0.7246535 -0.51664543 1.0381427 1.2806182 1.4846367 -0.79203486 0.39114216
-0.56252426 -0.36215612 -1.0504593 -0.4650422 -0.32427517 -1.4799291 -1.6116453 0.35157526
-0.013323961 -0.21860851 -1.1682782 0.08618693 -0.045712188 -0.10855432 -0.16468191 0.6212101
0.9980557 0.8881145 -0.47752556 0.73077995 0.36997366 -1.1057589 -0.88963133 0.47296154
1.1458373 2.0955706 0.26584333 -0.16679709 -2.0187104 -0.5105638 -0.17117219 -1.6815213
2.221225 1.0436783 0.4329727 -1.983883 0.118075185 -0.94344383 -1.2474337 1.1728535
-1.0037886 -1.333175 -0.6759388 -0.4235067 -0.8534731 -1.8844438 -0.9282671 0.39854968
-0.8180726 1.0009161 -2.0857103 -0.9570507 0.4882654 0.059317216 0.5616449 -1.1737576
-0.063031696 0.22660463 1.5521247 -0.30550864 0.51881564 -1.5023873 0.9045222 0.007063105
-1.3379928 1.553812 -0.5376608 -0.12144053 0.04090884 1.336498 -0.4567203 -0.82536924
1.6197214 1.1209024 0.6507505 0.041894965 -0.018653397 -1.8062929 1.0843441 0.948194
1.0477462 0.572811 2.720581 0.5115345 0.9586083 1.5794446 1.3730651 1.0137911
-0.6275242 -0.20516537 1.1429161 -0.2887615 0.9966653 -0.21172832 0.21701999 -0.33565614
00000000: 8192 afbf dd1d 5abe 775c f53f 6c54 833f
00000010: fc39 883f 6af0 ea3f 7bdd 953e 49b3 8a3e
00000020: 177b 213d 92dd ac3d bf4a 9abe 1833 92be
00000030: bd7c 34be d121 11bf f8b0 d1bd e5b9 b0be
00000040: 3d3d 02c0 e5c9 a2be 1bf9 9d3f 47dc 663e
00000050: ff27 493f fc7c 1c3d ad88 a63f d240 493d
00000060: c749 0b3f cbd6 9bbe 9951 8fbf 46d9 fbbd
00000070: f35e cdbf ee8b c03d 2dd2 853f 013f f9bf
00000080: 5a1e 83bf bacf e73e d782 babf 9651 1c3e
00000090: 4fca b4be 07b5 d1be 0e42 263f 63e1 8fbe
000000a0: 7f3e 293f 8e15 c9be 5b2d 3fbe bcd4 8dbf
000000b0: 3396 a6be b7d0 413f 2200 1abf c4f2 69bf
000000c0: 7fa0 e13f 3423 32bf 7ff6 783f e4e1 8d3f
000000d0: 2fc2 6e3f d59a 863f 2bc2 333f d4f2 0c3f
000000e0: 90b6 aebf 67bd 1f3f 1b88 aabf a2c7 b83f
000000f0: 3610 dbbe a5b3 91be e947 42bf f8f3 25bf
00000100: 9afe 49be 55e6 3bbf 4714 fbbf c810 c4be
00000110: ef2c 483f 446a 00bf 6513 a03e f6c6 ffbe
00000120: d0cb 63bf 71d7 9bbe 5977 4dbf 63e5 863e
00000130: 69e8 af3f 62dc 5c3f 4a94 06be 323b d1be
00000140: bc94 e4be d477 8ebf 7ece 2bbf e345 5abf
00000150: 424a a93f 0f78 8a3e 8265 45bf bb27 d83e
00000160: 8d50 b93e d5c1 143f 1331 50bf 715c 72be
00000170: 1c4f c8bf dcd1 813f 0503 c5bf b98f a63e
00000180: d52b 14bf 115e 0a3f cf45 6fbe b386 7a3f
00000190: 733c bb3f 51c6 38bc d385 9dbf c830 86bf
000001a0: fc9a 8d3e 1a3f 83bf 98d0 083f 2fd4 803e
000001b0: a710 6cbe bf56 e2bf 4835 0640 38be 0d3d
000001c0: 6560 483f a621 fabf db54 c7bf 06c9 f43e
000001d0: 9f89 24be 1147 883f acb4 0040 3e47 81be
000001e0: 4fe4 b63f e607 9c3f ed1a 283e 77b9 a53f
000001f0: 4abf d5bd 33b3 083e 66e5 d2be 9112 843d
00000200: 865b 9d3e aa6c d03e f4ce 34be dbf0 e9be
00000210: 506d 9d3e b776 c83f 14fd 27bf cd94 2d3f
00000220: 50d4 8c3e edd3 503e 47a3 a7bf 8679 13bf
00000230: 78de e33e 159c 81bf 1644 613e 525f 34bf
00000240: 5276 a13f f542 a23f ac69 cdbf 84f8 20bf
00000250: 5191 4dbe 4650 14c0 cb7f 0c40 dfeb 403f
00000260: a6a6 efbe e482 393f e042 04bf dce1 843f
00000270: 4ceb a33f 9308 be3f ccc2 4abf c943 c83e
00000280: 9701 10bf 876c b9be 7375 86bf 031a eebe
00000290: 6507 a6be 516e bdbf 654a cebf ac01 b43e
000002a0: be4c 5abc e9da 5fbe 248a 95bf c682 b03d
000002b0: b43c 3bbd ba51 debd 60a2 28be a007 1f3f
000002c0: 9480 7f3f 795b 633f 3b7e f4be 6514 3b3f
000002d0: 306d bd3e 8289 8dbf e1be 63bf 0428 f23e
000002e0: ccaa 923f d41d 0640 9e1c 883e dbcc 2abe
000002f0: 8d32 01c0 4fb4 02bf c347 2fbe 173c d7bf
00000300: 8d28 0e40 4097 853f 99ae dd3e e1ef fdbf
00000310: 67d1 f13d 8985 71bf e8ab 9fbf 1020 963f
00000320: 257c 80bf 7aa5 aabf 530a 2dbf dfd5 d8be
00000330: 377d 5abf 7435 f1bf eaa2 6dbf b40e cc3e
00000340: 356d 51bf 051e 803f 477c 05c0 4601 75bf
00000350: ecfd f93e 9cf6 723d f6c7 0f3f b03d 96bf
00000360: c316 81bd 0b0b 683e 06ac c63f a16b 9cbe
00000370: 1ad1 043f 3a4e c0bf c48e 673f 9e71 e73b
00000380: 5943 abbf 50e3 c63f 23a4 09bf d0b5 f8bd
00000390: 0790 273d 5e12 ab3f 3ed7 e9be 664b 53bf
000003a0: 0853 cf3f bb79 8f3f 9697 263f 0e9a 2b3d
000003b0: 02cf 98bc 9b34 e7bf cacb 8a3f d8bc 723f
000003c0: 8c1c 863f bea3 123f 001e 2e40 edf3 023f
000003d0: 5b67 753f 3e2b ca3f 99c0 af3f e8c3 813f
000003e0: 6da5 20bf df16 52be 134b 923f 8cd8 93be
000003f0: 7525 7f3f 4fcf 58be 7d3a 5e3e 1fdb abbe

performer.performer.net.layers.0.0.fn.fn.local_attn.rel_pos.inv_freq f4 [32]
1.0 0.7498942 0.56234133 0.4216965 0.31622776 0.23713736 0.17782794 0.13335215
0.1 0.074989416 0.05623413 0.04216965 0.03162278 0.023713736 0.017782794 0.013335215
0.01 0.0074989423 0.0056234132 0.004216965 0.0031622779 0.0023713738 0.0017782794 0.0013335214
0.001 0.0007498942 0.0005623413 0.0004216965 0.0003162278 0.00023713738 0.00017782794 0.00013335215
00000000: 0000 803f 11f9 3f3f 9af5 0f3f 9be8 d73e
00000010: 9be8 a13e 23d4 723e 8718 363e 778d 083e
00000020: cdcc cc3d 0d94 993d c255 663d 15ba 2c3d
00000030: e386 013d 4f43 c23c 39ad 913c f27b 5a3c
00000040: 0ad7 233c b0b9 f53b 9c44 b83b 772e 8a3b
00000050: 383e 4f3b 0d69 1b3b 2815 e93a 8ec9 ae3a
00000060: 6f12 833a 8c94 443a 166a 133a 2517 dd39
00000070: 60cb a539 15a8 7839 5377 3a39 72d4 0b39

performer.performer.net.layers.0.0.fn.fn.to_q.weight f4 [256, 16]
-0.25320804 0.060602393 -0.03934668 0.14600001 -0.14593992 0.15463345 0.07236457 0.067118086
0.07816859 -0.18370874 -0.1857308 0.050264698 -0.029066833 0.056900617 0.17028756 0.028919058
-0.0091470275 0.18862377 0.053562935 0.08390296 0.020013977 0.2844233 0.14762181 -0.025724584
0.08703586 -0.048409436 0.17270255 -0.12498695 -0.078281865 -0.08604107 0.18780851 0.09609542
0.11636762 0.019297715 -0.3186484 -0.06003602 -0.06672984 0.15570894 0.09800118 0.13206802
-0.2745322 0.03670257 -0.18477273 0.14488934 -0.120044455 0.18677682 0.15924612 0.090532824
0.009488943 -0.106706135 -0.21496932 0.02527664 0.02143969 -0.12985758 0.1513684 -0.2331286
-0.121652246 -0.18322967 -0.02732041 -0.0033963884 0.14294264 0.11237826 -0.3117733 0.19489656
-0.22309345 -0.03383923 0.058354154 0.02201615 0.14273171 0.3639289 -0.057638127 0.17544554
-0.045868542 0.096699685 0.24358694 -0.12819363 0.081858754 0.06874394 0.034453265 -0.2306603
0.030980933 0.026692541 -0.000496401 -0.21893018 0.008582875 0.13893409 0.1617211 -0.24176675
0.009293313 0.03159993 -0.13030495 0.031065645 -0.13237433 -0.060023043 -0.21213149 -0.13818707
0.10602175 0.23345539 -0.1842975 0.22322768 0.19720072 -0.0961278 0.03323364 -0.18258807
-0.11437152 -0.21793766 0.08829117 -0.05398097 0.08310276 -0.21297288 0.19633693 0.15387258
-0.006186198 0.032416105 0.06375589 0.17376201 0.18308306 -0.08037082 0.07195141 0.06769739
0.14830595 0.102037385 0.04944804 -0.031968538 0.14677048 0.23745589 0.08425017 0.25286195
-0.25054216 -0.12698609 -0.05503618 0.144498 0.11340021 0.3375291 0.27015433 0.2190524
0.002311276 0.039499704 -0.09876886 -0.04035504 0.10373781 -0.13182653 -0.09120283 -0.047804613
-0.17010424 0.17715332 -0.09139599 -0.05971752 0.24940963 0.20912322 -0.05579884 -0.14712971
-0.10739945 0.1377438 -0.19089104 0.23032555 -0.08859884 -0.15902366 0.089379504 0.12183131
-0.13545994 0.21526662 -0.20569396 0.15111624 0.09333765 -0.03565945 -0.21904422 0.109486386
0.10828563 0.11484211 0.02305666 -0.2852528 0.087334596 0.035785843 0.04751321 0.27105182
0.18002191 0.2096938 0.011607978 0.2503831 0.21815825 -0.058250196 -0.07627008 -0.1714122
0.17668837 0.18853208 -0.15071286 -0.059343774 -0.13015795 0.03806888 0.2667364 0.15814687
-0.14640616 0.16558658 0.025706332 0.06783988 0.051383514 -0.17987531 0.16730544 0.02582325
-0.12924586 0.055656657 0.09081335 -0.10893807 0.038862072 -0.10056843 0.1568884 0.14891025
-0.11684458 -0.12863936 -0.07904122 -0.30560392 -0.32022598 0.09408686 -0.13357767 0.15836298
-0.18918908 -0.039341297 0.025818564 0.14353333 -0.050244965 -0.09669237 0.03157776 -0.09097122
0.2631859 0.016400767 -0.15032353 -0.095754765 0.14314279 -0.03437085 0.16105281 0.040392827
0.14377531 0.16514169 -0.047528654 -0.030582976 0.094695285 -0.04198957 -0.1590523 -0.13994586
-0.20567116 0.14656039 -0.34640542 -0.16232887 -0.001931996 0.29240248 -0.25759065 -0.2055924
0.09880686 0.20792837 0.13821144 0.036753625 0.2522492 0.01802719 -0.038319755 -0.16191758
00000000: 7ca4 81be 373a 783d fc29 21bd 0781 153e
00000010: 4671 15be 3b58 1e3e e033 943d 3575 893d
00000020: db16 a03d 251e 3cbe 3730 3ebe 5be2 4d3d
00000030: 911d eebc 9f10 693d dd5f 2e3e a9e7 ec3c
00000040: 6add 15bc 9726 413e cf64 5b3d 51d5 ab3d
00000050: 5af4 a33c ee9f 913e 2c2a 173e 5dbc d2bc
00000060: db3f b23d f948 46bd f0d8 303e 28f9 ffbd
00000070: 3e52 a0bd 4d36 b0bd e050 403e adcd c43d
00000080: 2652 ee3d 3e16 9e3c e225 a3be 54e8 75bd
00000090: a8a9 88bd 2a72 1f3e d8b4 c83d d73c 073e
000000a0: 7c8f 8cbe 6f55 163d 1035 3dbe df5d 143e
000000b0: ded9 f5bd 6c42 3f3e 6a11 233e 4669 b93d
000000c0: 8377 1b3c bf88 dabd eb20 5cbe f510 cf3c
000000d0: 4aa2 af3c 63f9 04be 5100 1b3e 44b9 6ebe
000000e0: d024 f9bd 8fa0 3bbe 0dcf dfbc f195 5ebb
000000f0: 8e5f 123e 9326 e63d c0a0 9fbe f792 473e
00000100: 9c72 64be 019b 0abd c404 6f3d 375b b43c
00000110: 4328 123e e454 ba3e f515 6cbd ffa7 333e
00000120: a7e0 3bbd 7c0a c63d db6e 793e 3145 03be
00000130: 90a5 a73d 9fc9 8c3d de1e 0d3d 3732 6cbe
00000140: bacb fd3c 51aa da3c e820 02ba 3c2f 60be
00000150: 309f 0c3c bd44 0e3e 379a 253e b491 77be
00000160: fb42 183c ee6e 013d a96e 05be 617d fe3c
00000170: 238d 07be b9da 75bd ff38 59be e980 0dbe
00000180: ee21 d93d ee0e 6f3e 7cb8 3cbe cc95 643e
00000190: fcee 493e a7de c4bd ff1f 083d 5ef8 3abe
000001a0: 9e3b eabd 0d2b 5fbe 00d2 b43d 261b 5dbd
000001b0: c831 aa3d 9015 5abe 8c0c 493e c690 1d3e
000001c0: 97b5 cabb c0c6 043d 7392 823d abee 313e
000001d0: 207a 3b3e 7599 a4bd 435b 933d eea4 8a3d
000001e0: 84dd 173e faf8 d03d 078a 4a3d 71f1 02bd
000001f0: 004b 163e a327 733e 5a8b ac3d 1f77 813e
00000200: 1047 80be a408 02be 9e6d 61bd 49f7 133e
00000210: 5f3e e83d 9dd0 ac3e ab51 8a3e 464f 603e
00000220: c778 173b 71ca 213d 5447 cabd 544b 25bd
00000230: 7d74 d43d 89fd 06be 8dc8 babd c5ce 43bd
00000240: ce2f 2ebe ae67 353e d22d bbbd 5c9a 74bd
00000250: 3d65 7f3e 6624 563e 538d 64bd 2ca9 16be
00000260: 3ef4 dbbd b60c 0d3e f178 43be 76da 6b3e
00000270: 4f73 b5bd 19d7 22be 9a0c b73d b282 f93d
00000280: 03b6 0abe da6e 5c3e 70a1 52be 37be 1a3e
00000290: cf27 bf3d a50f 12bd 214d 60be 663a e03d
000002a0: dbc4 dd3d 5732 eb3d 52e1 bc3c a80c 92be
000002b0: 7bdc b23d 2d94 123d 369d 423d 4ec7 8a3e
000002c0: aa57 383e f9b9 563e 632f 3e3c 3732 803e
000002d0: e064 5f3e c297 6ebd 7d33 9cbd ae86 2fbe
000002e0: cced 343e 8e0e 413e 7954 1abe 7512 73bd
000002f0: 2048 05be 1dee 1b3d ac91 883e 41f1 213e
00000300: 7feb 15be 878f 293e 1696 d23c a3ef 8a3d
00000310: 8577 523d 3c31 38be 1e52 2b3e 488b d33c
00000320: 0759 04be 3cf8 633d 5afc b93d ec1a dfbd
00000330: d62d 1f3d d2f6 cdbd 5aa7 203e ee7b 183e
00000340: 364c efbd 09ba 03be 5de0 a1bd 1e78 9cbe
00000350: a9f4 a3be 9db0 c03d 96c8 08be e829 223e
00000360: c8ba 41be 5724 21bd 7481 d33c 67fa 123e
00000370: aacd 4dbd a606 c6bd ae57 013d 1e4f babd
00000380: 4dc0 863e e75a 863c 69ee 19be 131b c4bd
00000390: 0694 123e 73c8 0cbd 07eb 243e f372 253d
000003a0: d639 133e e71a 293e 68ad 42bd 2689 fabc
000003b0: 9aef c13d 41fd 2bbd 9bde 22be f84d 0fbe
000003c0: 769b 52be ed13 163e 0d5c b1be 8a39 26be
000003d0: 073b fdba c7b5 953e ece2 83be d086 52be
000003e0: 405b ca3d 2deb 543e 4d87 0d3e f88a 163d
000003f0: cf26 813e c2ad 933c 2df5 1cbd b9cd 25be

performer.performer.net.layers.0.0.fn.fn.to_k.weight f4 [256, 16]
-0.086993866 -0.3277838 -0.39809766 0.31299832 0.3241186 0.08414613 0.015415285 -0.37139586
0.3540338 0.01959122 0.27462694 0.0686359 0.133699 -0.116729975 -0.055053238 0.44279525
-0.059410077 0.07661016 0.3453658 0.034288798 -0.33735275 -0.24184236 0.07470808 0.19928049
0.010174206 0.38356388 0.14817065 0.29492807 -0.2770583 -0.42677647 0.0039381175 -0.3546498
-0.003796605 -0.21797064 0.090188496 -0.402603 0.1592296 0.09318359 -0.13058344 -0.050651956
0.16797969 -0.13438483 -0.12600568 -0.06480635 -0.02977145 -0.1434392 -0.13310115 0.25218925
0.35231307 -0.04934874 0.10820639 0.10311552 -0.18157412 -0.24738955 0.031853583 0.049038243
-0.03831288 0.1056064 -0.20627491 0.3110781 -0.42041495 -0.31766814 0.16551784 0.059061825
0.06028687 0.18196552 -0.05085542 0.005618139 -0.19401409 -0.07057348 0.17098808 -0.066476054
-0.20588975 0.01093119 0.032422207 0.21381962 -0.32895362 0.18966414 0.24002232 -0.1083049
0.2168446 -0.077174984 0.1759279 -0.30664548 -0.29391703 -0.22277725 0.2983985 0.05486813
-0.14582887 0.3435118 0.21970819 -0.094612025 -0.26009372 0.13657555 0.03824109 0.2136815
-0.059214935 0.028084688 0.017214162 0.18100505 0.33608398 -0.06258029 -0.22008227 -0.18221647
-0.073104024 0.021110374 -0.081479944 0.09015897 -0.039886728 0.18821646 -0.22458532 -0.03992361
-0.18690959 0.18725145 0.13401072 0.1793668 0.24422728 -0.12859684 0.10217156 -0.20817609
0.057336286 -0.047329836 -0.09447258 0.04957499 0.096086636 -0.03763801 0.20550549 -0.06342582
0.15779747 0.22825463 0.2300561 -0.13170713 -0.18518004 0.069502965 0.42496124 0.1751143
0.03987123 -0.020739771 0.134507 0.14826222 -0.03404126 0.19264147 -0.12590562 0.21374062
0.2616673 -0.21043329 0.21191512 0.16368589 0.1235215 -0.24426927 0.10209578 0.1974928
0.25912538 -0.049620345 0.10607 0.06944868 -0.112926684 -0.03524592 0.2978966 -0.2057434
0.24360985 -0.28817663 0.16621657 -0.28643048 0.029892877 -0.13270015 -0.046199627 -0.23853266
0.049342383 -0.33170542 0.1100632 -0.20946921 0.05471248 0.2844686 -0.0013698697 0.031396683
-0.053816553 0.33234623 -0.14138222 0.37889844 0.13513204 0.17484224 -0.15781632 0.15011455
-0.058425695 0.33167663 -0.14525416 -0.09214141 -0.18479237 0.1269905 0.0944789 -0.07293439
0.12623347 0.013163704 -0.050153065 0.031526886 0.017954469 0.15600182 -0.009354439 -0.060231835
0.10735285 0.07240601 -0.066940956 -0.088300385 0.0081624575 0.094567664 -0.21238956 0.1628616
-0.10221189 0.032847025 -0.14461014 -0.16067965 -0.2072851 -0.14374757 0.2807243 -0.011464401
0.04635848 -0.244027 -0.24200036 0.012212627 -0.08499773 -0.07786067 0.03646662 0.00928411
0.14905405 -0.03851877 0.31768346 -0.06919908 0.021037737 -0.24358085 -0.107109666 0.07678019
-0.26532602 0.27756658 -0.014417774 -0.16104315 -0.051846556 -0.008303965 0.42266303 -0.05635384
-0.029809803 -0.15136583 0.10534876 -0.13725534 -0.13683252 -0.12554269 -0.20985752 0.1921421
-0.20157765 0.15779257 -0.1683317 -0.117852606 0.13045084 -0.4231767 0.029519545 0.07952884
00000000: d729 b2bd 47d3 a7be 75d3 cbbe 5141 a03e
00000010: e0f2 a53e ce54 ac3d 6490 7c3c 9927 bebe
00000020: eb43 b53e c47d a03c e79b 8c3e fb90 8c3d
00000030: 64e8 083e 2010 efbd 817f 61bd 0fb6 e23e
00000040: fb57 73bd cae5 9c3d c9d3 b03e 6972 0c3d
00000050: 80b9 acbe 86a5 77be 8d00 993d 2f10 4c3e
00000060: b7b1 263c 7c62 c43e 0cba 173e d000 973e
00000070: 96da 8dbe 7282 dabe 530b 813b a994 b5be
00000080: 76d0 78bb b233 5fbe bfb4 b83d fb21 cebe
00000090: 160d 233e 0ad7 be3d aab7 05be 6d78 4fbd
000000a0: de02 2c3e 2d9c 09be a207 01be 31b9 84bd
000000b0: 42e3 f3bc bae1 12be ab4b 08be f31e 813e
000000c0: 6162 b43e e821 4abd 509b dd3d 3b2e d33d
000000d0: 91ee 39be b053 7dbe e778 023d 53dc 483d
000000e0: f7ed 1cbd 2b48 d83d bb39 53be a145 9f3e
000000f0: a140 d7be 66a5 a2be 827d 293e d0ea 713d
00000100: 5def 763d 2b55 3a3e c64d 50bd 5e18 b83b
00000110: a1ab 46be d488 90bd 8017 2f3e 9924 88bd
00000120: c3d4 52be bc18 333c 26cd 043d 88f3 5a3e
00000130: 9c6c a8be 5137 423e 69c8 753e f6ce ddbd
00000140: 830c 5e3e eb0d 9ebd 7226 343e a300 9dbe
00000150: 4b7c 96be b81f 64be b0c7 983e 67bd 603d
00000160: 2a54 15be c7e0 af3e 2ffb 603e f3c3 c1bd
00000170: 012b 85be 76da 0b3e b0a2 1c3d 53cf 5a3e
00000180: 5c8b 72bd dc11 e63c b704 8d3c 6359 393e
00000190: 3313 ac3e 182a 80bd 3f5d 61be f496 3abe
000001a0: 90b7 95bd aaef ac3c f5de a6bd 44a5 b83d
000001b0: 4460 23bd d1bb 403e b2f9 65be f086 23bd
000001c0: 3a65 3fbe d8be 3f3e 1b3a 093e eeab 373e
000001d0: b716 7a3e e4ae 03be 533f d13d 1d2c 55be
000001e0: 74d9 6a3d eedc 41bd d77a c1bd 250f 4b3d
000001f0: 12c9 c43d 502a 1abd 0870 523e 65e5 81bd
00000200: a995 213e 95bb 693e d493 6b3e 3cde 06be
00000210: d69f 3dbe 9257 8e3d 8594 d93e 2a51 333e
00000220: 0450 233d 74e6 a9bc 34bc 093e 0dd2 173e
00000230: d96e 0bbd ce43 453e 67ed 00be d2de 5a3e
00000240: 42f9 853e d37b 57be 4700 593e 469d 273e
00000250: d7f8 fc3d b921 7abe 9817 d13d 8d3b 4a3e
00000260: 15ac 843e b43e 4bbd 3a3b d93d 1c3b 8e3d
00000270: 1b46 e7bd 075e 10bd e785 983e 66ae 52be
00000280: dc74 793e e38b 93be ad34 2a3e 04a7 92be
00000290: e8e1 f43c 8ce2 07be d23b 3dbd e841 74be
000002a0: 3d1b 4a3d 4bd5 a9be d168 e13d 197f 56be
000002b0: 321a 603d dea5 913e 338d b3ba cf99 003d
000002c0: bf6e 5cbd 4929 aa3e 80c6 10be fafe c13e
000002d0: 0e60 0a3e d809 333e 9a9a 21be a1b7 193e
000002e0: c84f 6fbd 85d1 a93e 82bd 14be a3b4 bcbd
000002f0: 363a 3dbe cc09 023e 277e c13d a05e 95bd
00000300: 5943 013e 94ac 573c 4d6d 4dbd 5622 013d
00000310: 4015 933c f1be 1f3e 5c43 19bc a8b5 76bd
00000320: d0db db3d 9a49 943d 5718 89bd d5d6 b4bd
00000330: d4bb 053c b1ac c13d a67c 59be 31c5 263e
00000340: 7854 d1bd 9a8a 063d ae14 14be 3589 24be
00000350: 8c42 54be 9032 13be 18bb 8f3e 2fd5 3bbc
00000360: 64e2 3d3d 37e2 79be f1ce 77be 7817 483c
00000370: 4a13 aebd 6a75 9fbd 065e 153d 611c 183c
00000380: a0a1 183e dcc5 1dbd 68a7 a23e 3fb8 8dbd
00000390: 5557 ac3c 426d 79be 505c dbbd ef3e 9d3d
000003a0: d0d8 87be 351d 8e3e 8738 6cbc 7fe8 24be
000003b0: 0e5d 54bd 5b0d 08bc 4a67 d83e 49d3 66bd
000003c0: b033 f4bc a5ff 1abe 17c1 d73d aa8c 0cbe
000003d0: d31d 0cbe 438e 00be e4e4 56be e6c0 443e
000003e0: 5f6a 4ebe 6094 213e 255f 2cbe b55c f1bd
000003f0: e894 053e 9eaa d8be f9d2 f13c 04e0 a23d

performer.performer.net.layers.0.0.fn.fn.to_v.weight f4 [256, 16]
0.07556901 -0.29308942 -0.16127694 0.23750757 0.02526784 0.24072912 0.031764768 -0.13971019
0.20364065 -0.22933923 0.1577799 -0.10446395 -0.0045024636 0.20898753 -0.27500576 -0.054279745
-0.24734452 0.4015373 0.11376057 0.2007952 -0.020966392 -0.18072699 0.18985328 -0.019644793
0.11590331 0.15607792 -0.28063184 0.19754013 -0.14318043 -0.032336198 -0.0008945414 0.024396911
-0.24621159 -0.22019878 0.09721082 0.10355456 0.09303567 0.026033638 0.20344956 -0.16031207
0.2652452 0.16838197 0.032955106 -0.021653714 0.012035627 -0.15210979 -0.15168068 0.07336011
-0.43525732 -0.047923155 -0.051331118 -0.16990656 0.17416726 0.17147872 0.12441987 0.049212858
0.0912117 -0.17243826 -0.20246871 0.16829292 0.018034928 -0.19927897 -0.09028107 0.12664533
-0.10117016 0.40936425 0.15010324 -0.18056206 -0.22878756 0.06359904 -0.063544676 -0.029427031
0.039799266 0.02310862 0.062246077 0.035224162 -0.16152328 -0.28389615 0.050137896 -0.0097627845
-0.117224246 0.043392118 0.18057832 -0.049359735 0.18948896 0.010460936 -0.047837324 0.026069606
0.115506425 0.07900309 0.011506748 -0.07758509 0.16183381 0.31254587 -0.20018977 -0.10728871
-0.20406967 -0.29586095 -0.2853974 -0.13999079 -0.07156008 -0.070232995 -0.17608921 0.1336479
-0.19279593 0.20858268 0.047847595 -0.12187162 0.11784312 0.3063193 -0.18080367 0.18495429
-0.13629219 -0.034243394 0.20081185 0.19145967 -0.04338386 -0.15656038 0.12542388 -0.00944718
-0.1635441 0.021831999 -0.07093158 0.094579116 0.24986883 -0.1839404 0.34525925 -0.17093885
-0.14070873 -0.21806295 -0.036606144 0.086256415 0.059914608 0.2625865 0.0968608 -0.1149434
-0.06010064 -0.1156743 0.02684699 0.04078954 -0.116503164 0.2825946 -0.066747814 -0.16663806
-0.0366114 -0.1444595 0.077791765 -0.12605111 0.16155611 -0.09196953 0.21317698 -0.21864648
0.030238857 -0.24932778 0.031496372 -0.22166379 0.18856378 0.28048593 0.043560196 -0.024820948
-0.0055054384 0.031051807 0.12930937 0.14327945 -0.26506013 0.041442942 -0.12782773 -0.19241804
-0.29602733 -0.10619243 0.17340806 -0.1408101 -0.034003522 0.09574362 -0.13380472 -0.07562146
0.18778685 0.04350321 0.24686101 0.22656631 0.11460307 -0.20912747 0.14299645 0.09026105
0.19545177 0.30314705 0.21047889 -0.058565732 0.21930079 0.11486666 0.2728379 0.05019964
0.112634316 -0.32944116 0.21973158 0.10185278 -0.23310016 0.28634235 0.065762416 0.18287508
0.09735209 0.29812846 0.027830848 0.05994195 0.0132628465 0.2514426 -0.075875856 -0.17386664
-0.45479727 0.04562441 -0.11864869 -0.093220346 -0.09148171 -0.22618748 -0.13211387 -0.02079627
-0.21723627 -0.22890589 -0.0033402196 0.021170417 -0.17788531 0.065571964 -0.0518904 0.0234838
-0.15045626 -0.20730358 -0.0859067 -0.13059989 0.019274483 0.008323247 0.050875064 0.14157729
-0.25264865 0.024943547 0.13490602 -0.20512012 0.23618922 -0.054822885 -0.04317306 -0.090703145
0.32732704 -0.31008694 -0.21799655 -0.009789295 -0.19124877 -0.014714749 0.14495213 -0.11281471
-0.22731575 0.017484693 0.11801864 -0.21678038 0.03117682 -0.051955696 -0.12558985 -0.14480014
00000000: edc3 9a3d d10f 96be c825 25be 2f35 733e
00000010: 80fe ce3c b281 763e c61b 023d 3010 0fbe
00000020: 2d87 503e e7d7 6abe 0e91 213e 32f1 d5bd
00000030: 6789 93bb d400 563e 8ecd 8cbe 7054 5ebd
00000040: e247 7dbe 4c96 cd3e 4dfb e83d 429d 4d3e
00000050: b6c1 abbc 7f10 39be e668 423e 1eee a0bc
00000060: b75e ed3d e4d2 1f3e faae 8fbe f647 4a3e
00000070: e49d 12be f672 04bd a87f 6aba 08dc c73c
00000080: e41e 7cbe ca7b 61be 7716 c73d 6a14 d43d
00000090: 7c89 be3d 7f44 d53c 1555 503e d928 24be
000000a0: 38ce 873e 536c 2c3e effb 063d 2163 b1bc
000000b0: 1431 453c abc2 1bbe 2e52 1bbe d33d 963d
000000c0: 0cda debe 124b 44bd 9440 52bd fcfb 2dbe
000000d0: e758 323e 1e98 2f3e d8cf fe3d 6c93 493d
000000e0: 33cd ba3d a893 30be f553 4fbe fb54 2c3e
000000f0: fcbd 933c c90f 4cbe 48e5 b8bd 50af 013e
00000100: 4d32 cfbd 3198 d13e aab4 193e 43e5 38be
00000110: 4947 6abe 3740 823d b623 82bd f510 f1bc
00000120: 8e04 233d 4a4e bd3c bef5 7e3d 3647 103d
00000130: 5c66 25be d65a 91be 655d 4d3d 16f4 1fbc
00000140: 4413 f0bd efbb 313d 86e9 383e 6f2d 4abd
00000150: 6509 423e 5964 2b3c 12f1 43bd ed8f d53c
00000160: a28e ec3d 5fcc a13d cd86 3c3c efe4 9ebd
00000170: c3b7 253e 0306 a03e 8cfe 4cbe 2fba dbbd
00000180: a4f7 50be 167b 97be 9c1f 92be bf59 0fbe
00000190: 178e 92bd 51d6 8fbd bb50 34be ffda 083e
000001a0: 4c6c 45be b396 553e d7fb 433d d497 f9bd
000001b0: bc57 f13d e2d5 9c3e 9924 39be a864 3d3e
000001c0: 2e90 0bbe cd42 0cbd 9fa1 4d3e 010e 443e
000001d0: 46b3 31bd 5d51 20be 1e6f 003e 58c8 1abc
000001e0: 1b78 27be 05d9 b23c 9444 91bd b2b2 c13d
000001f0: 9ddd 7f3e df5a 3cbe d2c5 b03e 980a 2fbe
00000200: f315 10be e54b 5fbe 53f0 15bd 34a7 b03d
00000210: 0569 753d bd71 863e f55e c63d 7267 ebbd
00000220: 172c 76bd a6e6 ecbd 38ee db3c ef12 273d
00000230: 3699 eebd 3db0 903e 14b3 88bd 2ba3 2abe
00000240: d6f5 15bd 31ed 13be 4a51 9f3d 8b13 01be
00000250: f76e 253e 855a bcbd 114b 5a3e dde4 5fbe
00000260: 7bb7 f73c c84f 7fbe 5702 013d d5fb 62be
00000270: dd16 413e da9b 8f3e 2d6c 323d 4d55 cbbc
00000280: f766 b4bb 5c60 fe3c ad69 043e d9b7 123e
00000290: f6b5 87be 13c0 293d 46e5 02be 3c09 45be
000002a0: e590 97be 6b7b d9bd e291 313e 8630 10be
000002b0: 4747 0bbd 3b15 c43d 1b04 09be 6ddf 9abd
000002c0: 324b 403e 6c30 323d 22c9 7c3e 0001 683e
000002d0: 04b5 ea3d 8325 56be a96d 123e c9da b83d
000002e0: 8224 483e 1736 9b3e c787 573e 9fe2 6fbd
000002f0: 6390 603e 363f eb3d 69b1 8b3e 239e 4d3d
00000300: d2ac e63d 83ac a8be 5101 613e 3198 d03d
00000310: cfb1 6ebe 779b 923e 72ae 863d 9b43 3b3e
00000320: 8860 c73d 4ba4 983e 85fd e33c b185 753d
00000330: 694c 593c 16bd 803e cd64 9bbd 190a 32be
00000340: 30db e8be a9e0 3a3d 16fe f2bd 4fea bebd
00000350: c35a bbbd b19d 67be dc48 07be f05c aabc
00000360: 2f73 5ebe 4e66 6abe 96e7 5abb 956d ad3c
00000370: 9127 36be 984a 863d 078b 54bd 1961 c03c
00000380: 3511 1abe 6447 54be daef afbd fabb 05be
00000390: 85e5 9d3c 3a5e 083c 5f62 503d a3f9 103e
000003a0: 2a5b 81be 6956 cc3c ce24 0a3e 020b 52be
000003b0: 96db 713e f68d 60bd 3cd6 30bd 92c2 b9bd
000003c0: 6997 a73e b7c3 9ebe 7d3a 5fbe 4763 20bc
000003d0: b8d6 43be 2116 71bc 556e 143e 660b e7bd
000003e0: 76c5 68be 0f3c 8f3c c2b3 f13d adfb 5dbe
000003f0: 8866 ff3c 7fcf 54bd a09a 00be 7d46 14be

performer.performer.net.layers.0.0.fn.fn.to_out.weight f4 [16, 256]
-0.02589012 -0.0020271656 0.0015360338 -0.07624138 0.014358538 -0.0012177869 -0.043203633 0.07622147
0.050035644 -0.08896234 -0.028144564 0.07978456 0.08649923 -0.2148254 0.050378665 0.085200705
-0.14201742 -0.027978601 0.018669657 -0.053784944 -0.08202567 -0.1071394 0.052905243 0.008127737
-0.006321585 0.09145343 -0.06701351 -0.0029868488 -0.012737123 0.11258149 0.052673098 -0.034349255
0.046142656 -0.038447343 0.025203083 0.001769711 0.1279322 -0.0068113594 0.026021807 -0.015250889
0.052200463 -0.04688057 0.019442996 -0.010503657 -0.11812533 0.113007784 0.06888777 -0.12660757
0.010390114 -0.013006187 -0.090706095 -0.043448303 0.05350192 0.055329658 -0.017767191 0.061772898
-0.07812277 -0.0024352055 0.09223926 -0.08783818 -0.061591085 0.07792441 -0.084655434 -0.069576
-0.09361418 -0.014363889 0.03173993 0.038559187 -0.034212787 -0.023798728 -0.0814796 -0.051784836
0.017539645 0.054733783 0.11048097 0.01569607 -0.015853664 0.010155715 -0.071276836 0.08574951
0.103396505 -0.09132383 0.05064233 -0.041791905 0.07881343 0.032872483 0.024281757 -0.041085303
-0.017212344 0.051752616 0.07476657 -0.014896981 -0.06724323 -0.014049596 0.026403014 0.015800294
0.0016826144 0.02726344 0.04421234 -0.016655715 -0.07105678 0.010089737 -0.07569168 0.022532444
-0.0022096026 -0.053443164 0.043484874 -0.039879676 -0.17051627 0.008295646 -0.011913725 -0.02660825
0.07058013 0.11283039 0.0021395572 -0.008187061 -0.064668 0.077830635 0.011621771 0.040905163
-0.043826837 0.017393218 -0.039221305 0.012222431 -0.11056494 0.049890097 0.073093235 0.03659529
0.017927943 -0.041694444 0.05236791 0.047793444 -0.019071901 -0.030234681 -0.040478878 -0.030265199
0.025849594 -0.032894026 -0.040759962 -0.033057053 0.10792901 0.1619887 -0.03876873 -0.057183728
-0.037925284 0.0482781 0.028358482 -0.0060759424 0.06879461 -0.018485477 0.04478166 -0.097093165
0.06355809 -0.04181681 0.00088265934 0.013010631 0.0026948145 -0.008899112 -0.018213803 0.030945027
0.076370396 0.076600276 0.049247403 0.0057513015 0.013642576 0.05373338 0.046536356 0.08964402
0.08057609 0.012589555 0.046091042 -0.06434563 0.03764606 0.013744925 -0.088441156 -0.09656135
-0.042242892 0.0028663874 0.031643573 0.056992657 0.025299693 0.063135184 0.0411136 -0.06160649
-0.06633849 0.0011017132 0.007557842 -0.08263121 0.031388238 -0.03606122 0.05622075 0.040230982
0.06736472 0.057741664 -0.030949084 0.061632693 0.014791537 0.08780736 0.1475501 -0.071287945
0.025902797 0.005195104 0.06923168 0.032164287 -0.042925306 -0.12693974 0.067236766 -0.04516979
-0.022671767 0.019637639 0.021251086 -0.18563455 0.016528355 0.030626552 -0.06961861 0.06600051
-0.10573351 0.0039611915 -0.012246542 -0.047144387 -0.11743012 0.01026066 0.11920752 -0.04558875
0.07593785 -0.005617857 0.028508972 0.018914329 -0.0892939 -0.038944647 0.123896115 0.044216756
0.005172709 -0.07585136 0.08070685 -0.057797693 0.0092549985 0.012094009 -0.07948625 0.06273999
0.0035857032 0.12231901 0.022284383 -0.01917132 -0.056144327 -0.04032462 0.074613675 -0.07910005
0.047998708 0.021502513 -0.10414001 -0.07626962 0.035224535 -0.084786415 0.11207705 0.075340085
00000000: 8417 d4bc 32da 04bb be54 c93a 7124 9cbd
00000010: 1340 6b3c 269e 9fba 4bf6 30bd 011a 9c3d
00000020: 2df2 4c3d e331 b6bd 6e8f e6bc 1666 a33d
00000030: 8226 b13d 31fb 5bbe dc59 4e3d b57d ae3d
00000040: 046d 11be 6133 e5bc 1cf1 983c 9a4d 5cbd
00000050: 13fd a7bd e76b dbbd 2bb3 583d 332a 053c
00000060: 4c25 cfbb f04b bb3d 613e 89bd 02bf 43bb
00000070: 5eaf 50bc 2091 e63d bfbf 573d ceb1 0cbd
00000080: 1500 3d3d f67a 1dbd b276 ce3c a6f5 e73a
00000090: a900 033e d331 dfbb af2b d53c ddde 79bc
000000a0: 27d0 553d d705 40bd eb46 9f3c 8817 2cbc
000000b0: b1eb f1bd a070 e73d 0815 8d3d 6aa5 01be
000000c0: 4c3b 2a3c e717 55bc 1ec4 b9bd d9f6 31bd
000000d0: d424 5b3d 5aa1 623d 808c 91bc 9405 7d3d
000000e0: d5fe 9fbd f897 1fbb f0e7 bc3d 81e4 b3bd
000000f0: ef46 7cbd d596 9f3d d45f adbd dd7d 8ebd
00000100: cbb8 bfbd 8456 6bbc bb01 023d 3df0 1d3d
00000110: b522 0cbd 8df5 c2bc c7de a6bd 561c 54bd
00000120: 4daf 8f3c 8830 603d d943 e23d 0b95 803c
00000130: 8bdf 81bc 2864 263c 97f9 91bd 709d af3d
00000140: 8cc1 d33d fd07 bbbd 556e 4f3d fd2d 2bbd
00000150: f068 a13d 4ca5 063d 89ea c63c 1049 28bd
00000160: e700 8dbc 8dfa 533d 371f 993d 7812 74bc
00000170: d2b6 89bd 4730 66bc 224b d83c 9e6f 813c
00000180: 2c8b dc3a 9457 df3c 0018 353d 9171 88bc
00000190: 3886 91bd 6d4f 253c 3d04 9bbd f695 b83c
000001a0: fbce 10bb 38e7 5abd 321d 323d df58 23bd
000001b0: d19b 2ebe 76ea 073c c931 43bc 8bf9 d9bc
000001c0: 518c 903d 9f13 e73d d037 0c3b 0623 06bc
000001d0: a870 84bd ab65 9f3d 3e69 3e3c 2c8c 273d
000001e0: c583 33bd 397c 8e3c 85a6 20bd 9740 483c
000001f0: df6f e2bd 8f59 4c3d e8b1 953d f1e4 153d
00000200: 9fdd 923c cbc7 2abd bc7f 563d 0fc3 433d
00000210: ad3c 9cbc b9ae f7bc 2ecd 25bd b9ee f7bc
00000220: 87c2 d33c e3bb 06bd ebf3 26bd d566 07bd
00000230: e309 dd3d 5ee0 253e f6cb 1ebd 7c39 6abd
00000240: 8b57 1bbd 42bf 453d 0c50 e83c b318 c7bb
00000250: 30e4 8c3d db6e 97bc f96c 373d c8d8 c6bd
00000260: be2a 823d 1a48 2bbd 4462 673a 8b2a 553c
00000270: 7c9b 303b 95cd 11bc 1d35 95bc 6d80 fd3c
00000280: 1568 9c3d 9be0 9c3d a5b7 493d 6a75 bc3b
00000290: 1c85 5f3c 8817 5c3d e89c 3e3d 4997 b73d
000002a0: 1405 a53d 6c44 4e3c f6c9 3c3d a4c7 83bd
000002b0: c132 1a3d 6532 613c a320 b5bd f5c1 c5bd
000002c0: e206 2dbd 00da 3b3b b19c 013d 2271 693d
000002d0: 4d41 cf3c 054d 813d bc66 283d 1657 7cbd
000002e0: 79dc 87bd 5c67 903a c6a7 f73b 8d3a a9bd
000002f0: f490 003d eeb4 13bd bb47 663d 3ec9 243d
00000300: 84f6 893d 8682 6c3d ef88 fdbc 9072 7c3d
00000310: 3458 723c 58d4 b33d 6017 173e 6aff 91bd
00000320: 1a32 d43c b13b aa3b 57c9 8d3d b3be 033d
00000330: 72d2 2fbd 7efc 01be 6eb3 893d f503 39bd
00000340: 24ba b9bc 1ddf a03c c216 ae3c fc16 3ebe
00000350: 7966 873c 89e4 fa3c 3494 8ebd 462b 873d
00000360: cf8a d8bd e2cc 813b b8a5 48bc 791a 41bd
00000370: 347f f0bd 541c 283c 1223 f43d 45bb 3abd
00000380: 4e85 9b3d 0016 b8bb a68b e93c 39f2 9a3c
00000390: b8df b6bd 6c84 1fbd 3fbd fd3d a11c 353d
000003a0: d47f a93b f557 9bbd a249 a53d 46bd 6cbd
000003b0: 47a2 173c f325 463c b0c9 a2bd d37d 803d
000003c0: 1efe 6a3b 6482 fa3d bd8d b63c 2c0d 9dbc
000003d0: 98f7 65bd 6e2b 25bd 0ecf 983d 35ff a1bd
000003e0: 4b9a 443d 0a26 b03c 5c47 d5bd 3f33 9cbd
000003f0: 9a47 103d 80a4 adbd a788 e53d e74b 9a3d

performer.performer.net.layers.0.1.norm.weight f4 [16]
0.9743122 1.0080999 1.0532967 1.0615478 1.0065867 1.0217382 0.9770334 1.030809
1.0113442 1.0105969 1.0036296 1.0571156 1.0228547 0.9810664 1.0670182 0.9982572
00000000: 866c 793f 6b09 813f 6dd2 863f cce0 873f
00000010: d5d7 803f 51c8 823f dc1e 7a3f 8df1 833f
00000020: ba73 813f 3d5b 813f ef76 803f 904f 873f
00000030: e7ec 823f 2b27 7b3f 0d94 883f c98d 7f3f

performer.performer.net.layers.0.1.norm.bias f4 [16]
0.07002325 -0.017518595 0.025258927 -0.037031285 -0.01912538 -0.0105003305 0.034182385 0.018935625
-0.05954294 0.06157759 0.013831555 0.016088411 0.0088123875 -0.019502511 0.011637742 -0.0037573376
00000000: 5a68 8f3d 2883 8fbc cfeb ce3c 1eae 17bd
00000010: d4ac 9cbc 9409 2cbc d402 0c3d e21e 9b3c
00000020: 4ce3 73bd c838 7c3d bf9d 623c d8cb 833c
00000030: d561 103c bbc3 9fbc 3aac 3e3c aa3d 76bb
